TrainedModels/conv1d_best.pt (torch, 84943 bytes, 7 tensors)

conv1d1.weight f4 [64, 128, 1]
-0.098222226 -0.0036381164 -0.046286598 0.029428951 0.102485485 -0.095125675 -0.0031963852 0.026300935
-0.023735119 0.08367203 -0.05913312 -0.059632942 0.07894371 -0.020099344 0.005931897 0.008797057
-0.043789264 -0.058530957 0.029485118 0.050243527 -0.100996785 -0.026813347 -0.08487254 0.05996886
-0.051027205 -0.005069912 0.0042784177 0.038424205 0.033569153 0.063722394 0.060436226 -0.0015831103
0.005340543 0.007714904 -0.076272205 0.02283375 0.044748317 0.053913407 -0.04532179 0.045489497
-0.019528294 0.01180639 0.040519826 -0.06378272 -0.085953355 0.08175961 0.025097873 -0.034647573
0.08337319 -0.10320954 -0.038469046 -0.018417787 0.03925878 -0.103533335 -0.016368246 0.05145519
-0.068800054 -0.020461498 -0.05263814 -0.038558878 0.02518512 0.069129325 -0.013593772 -0.0010888526
-0.07581841 0.04787341 0.011549684 0.050893936 0.017005652 -0.059268128 0.09741141 0.101762645
-0.009292982 -0.051522546 0.064389125 0.015784495 0.009311574 0.02829024 0.040698607 -0.03366003
-0.027130099 -0.09366025 -0.023063656 0.032745015 0.0642148 0.07850271 -0.017087849 0.02343788
-0.041429237 -0.014277853 0.051459078 -0.01414488 0.0047729253 -0.028561743 -0.059545316 0.024394402
-0.029918952 0.046634085 -0.038128782 0.0417842 0.062990926 0.055006478 0.04983355 -0.014736369
0.06853043 0.050169587 -0.029074127 -0.06716569 -0.037485234 7.925512e-05 -0.041905634 0.007158086
-0.023718089 -0.043176055 0.012733559 0.077925146 0.03293965 0.025102012 -0.0036261517 0.10094195
-0.04622073 -0.008671288 0.035450205 0.029494753 -0.08756917 -0.07902094 0.050762206 -0.065312326
-0.02779603 -0.06872635 0.04947115 0.06434428 0.024899092 -0.058812935 -0.070720285 -0.09975184
0.072189346 -0.078389235 -0.12461442 0.019190025 0.061279338 0.011968189 -0.024964483 0.014245461
0.051216174 0.033058632 0.01766284 0.0315723 -0.07194269 -0.042028766 -0.031068979 0.024139265
0.045638252 -0.07163524 0.068803914 0.055194408 -0.08546144 -0.07003957 0.0018992166 0.06258787
0.027609125 -0.0419769 -0.011904408 -0.017660623 -0.035197385 0.02955934 -0.08434294 -0.07862338
0.030849969 0.076666296 0.0451751 0.045961633 0.023945423 -0.0021932235 0.008824575 -0.077372745
-0.015404498 -0.018478718 0.042517744 -0.008264976 -0.10222188 0.056009848 0.019529108 0.033708222
-0.0664693 -0.028041901 0.014098974 0.04051848 -0.027637186 -0.0028547423 0.04241152 0.06296631
-0.10233066 0.00980665 -0.05033959 -0.00048169316 0.030204633 0.029907526 0.031023905 -0.071224526
-0.0598972 -0.07229196 -0.08130343 -0.059310105 0.039207995 -0.031039998 0.054239947 -0.0048722164
-0.044565022 -0.045404546 -0.09403401 -0.050592113 -0.06633671 -0.04238649 0.042628415 -0.03248442
0.05237152 -0.009554158 -0.013892142 -0.028452182 0.043525837 -0.052656148 0.01542207 0.034134313
-0.062392484 0.0105833355 0.02598925 0.026614005 -0.025785092 -0.039120786 -0.093129866 0.027732657
-0.052282665 0.07368185 -0.08259994 -0.029910473 -0.001119349 -0.011464457 0.006776239 -0.0061734915
-0.04480875 -0.046239927 -0.087261066 0.008947474 -0.08892568 0.044527303 0.02409984 -0.04381151
-0.031259216 0.030593997 -0.017175356 0.056945395 -0.057833605 -0.048854515 0.05415845 -0.06532669
00000000: bc28 c9bd 776d 6ebb 0497 3dbd fc14 f13c
00000010: e9e3 d13d 40d1 c2bd 727a 51bb 0f75 d73c
00000020: 2770 c2bc 3e5c ab3d 9235 72bd ac41 74bd
00000030: 3dad a13d 61a7 a4bc 5c60 c23b 8821 103c
00000040: 5f5c 33bd 28be 6fbd c68a f13c 28cc 4d3d
00000050: 67d7 cebd aaa7 dbbc a7d1 adbd e8a1 753d
00000060: e701 51bd 8121 a6bb f831 8c3b b362 1d3d
00000070: cf7f 093d e380 823d fa8b 773d 5e80 cfba
00000080: b9ff ae3b 4ecd fc3b 9a34 9cbd d80d bb3c
00000090: 034a 373d 4ed4 5c3d 57a3 39bd 3253 3a3d
000000a0: cdf9 9fbc 976f 413c 1ef8 253d 84a0 82bd
000000b0: 5008 b0bd 9571 a73d 0e9a cd3c 9dea 0dbd
000000c0: 90bf aa3d 865f d3bd b891 1dbd e6e0 96bc
000000d0: d1cd 203d 4909 d4bd b316 86bc adc2 523d
000000e0: 0be7 8cbd df9e a7bc 179b 57bd eaef 1dbd
000000f0: 0651 ce3c ad93 8d3d 6ab8 5ebc d5b7 8eba
00000100: af46 9bbd e916 443d e33a 3d3c 2976 503d
00000110: 704f 8b3c 23c3 72bd a27f c73d ef68 d03d
00000120: 9741 18bc 4e09 53bd 72de 833d 7c4e 813c
00000130: 928f 183c efc0 e73c 95b3 263d 1adf 09bd
00000140: f13f debc f2d0 bfbd feef bcbc a31f 063d
00000150: 0d83 833d 07c6 a03d d1fb 8bbc cc00 c03c
00000160: b4b1 29bd a8ed 69bc c1c6 523d edbf 67bc
00000170: 3366 9c3b 51fa e9bc cae5 73bd c5d6 c73c
00000180: 9718 f5bc 6203 3f3d ed2c 1cbd e925 2b3d
00000190: 6301 813d 794e 613d 441e 4c3d d070 71bc
000001a0: af59 8c3d a07e 4d3d dd2c eebc 2a8e 89bd
000001b0: 1e8a 19bd c535 a638 3ea5 2bbd 618e ea3b
000001c0: 704c c2bc 60d9 30bd 6ba0 503c 3897 9f3d
000001d0: baeb 063d bca2 cd3c bba4 6dbb a7ba ce3d
000001e0: f351 3dbd 0512 0ebc 3c34 113d fb9e f13c
000001f0: 7757 b3bd bbd5 a1bd 08ec 4f3d 78c2 85bd
00000200: 80b4 e3bc 67c0 8cbd 43a2 4a3d efc6 833d
00000210: 2ef9 cb3c d5e5 70bd ccd5 90bd b14a ccbd
00000220: 02d8 933d 898a a0bd d835 ffbd 6634 9d3c
00000230: 0b00 7b3d 3916 443c 5182 ccbc cb65 693c
00000240: 0dc8 513d 7d68 073d a9b1 903c f551 013d
00000250: b056 93bd 5b26 2cbd 5f84 febc b5bf c53c
00000260: 2def 3a3d 7fb5 92bd 11e9 8c3d 8813 623d
00000270: 6806 afbd e870 8fbd 22ef f83a 122e 803d
00000280: 882c e23c f8ef 2bbd b50a 43bc 03ad 90bc
00000290: 222b 10bd 6e26 f23c febb acbd 4b05 a1bd
000002a0: 13b9 fc3c 3803 9d3d 8709 393d 4442 3c3d
000002b0: 3129 c43c 2fbc 0fbb f394 103c 9a75 9ebd
000002c0: 2663 7cbc ae60 97bc 1627 2e3d d269 07bc
000002d0: b459 d1bd 956a 653d 82fb 9f3c a211 0a3d
000002e0: 0e21 88bd 21b8 e5bc 62ff 663c b5f6 253d
000002f0: 6167 e2bc a116 3bbb b4b7 2d3d 7bf4 803d
00000300: bd92 d1bd 12ac 203c e330 4ebd c38b fcb9
00000310: b56f f73c a100 f53c d825 fe3c 2ade 91bd
00000320: c456 75bd cf0d 94bd 6a82 a6bd 27ef 72bd
00000330: 9098 203d 9847 febc b52a 5e3d 1da7 9fbb
00000340: d089 36bd 1efa 39bd e794 c0bd ad39 4fbd
00000350: 8adb 87bd 759d 2dbd 229b 2e3d 620e 05bd
00000360: 8583 563d 0b89 1cbc de9b 63bc 8d14 e9bc
00000370: 2648 323d f9ad 57bd daac 7c3c 6cd0 0b3d
00000380: 438f 7fbd ba65 2d3c 68e7 d43c 9d05 da3c
00000390: 423b d3bc 1e3d 20bd dfba bebd 992f e33c
000003a0: 5926 56bd 83e6 963d 282a a9bd cf06 f5bc
000003b0: 1fb7 92ba 6bd5 3bbc 360b de3b 004b cabb
000003c0: 6189 37bd 1466 3dbd eeb5 b2bd 6d98 123c
000003d0: ab1e b6bd 4362 363d 076d c53c b373 33bd
000003e0: aa09 00bd 43a0 fa3c 55b3 8cbc 933f 693d
000003f0: eee2 6cbd ac1b 48bd 40d5 5d3d 00ca 85bd

conv1d1.bias f4 [64]
0.084700115 -0.06353874 -0.0512951 0.07421774 0.040033232 -0.035052218 0.07041384 -0.08699495
-0.08526928 0.04224202 -0.010504785 -0.050055545 -0.05641163 -0.02100426 0.055406686 -0.0013350073
-0.015778596 0.042520303 0.043226026 -0.007349661 -0.006117608 0.079494104 0.03362213 0.003873425
0.026410853 -0.054071892 0.04919424 -0.04130358 -0.034842968 0.06308882 -0.043663472 0.025836546
0.012722948 -0.020968372 0.061842494 -0.047129244 -0.00593108 0.008469679 0.0038501318 0.012751592
-0.0014175208 -0.06639803 0.029558256 0.075854294 0.015384305 0.045003194 0.046963874 0.03373013
-0.0029201247 -0.051746283 -0.032031737 0.05003456 -0.06582274 0.030902205 0.06642191 -0.0016856942
-0.06367448 0.069023296 0.07297301 0.07201467 0.060411144 -0.067208216 0.0714819 0.041856106
00000000: 4177 ad3d 9920 82bd d01a 52bd 78ff 973d
00000010: e3f9 233d ea92 0fbd 2235 903d 692a b2bd
00000020: a9a1 aebd f805 2d3d 431c 2cbc 0b07 4dbd
00000030: e20f 67bd 2011 acbc 1ff2 623d 69fb aeba
00000040: 1d42 81bc c529 2e3d c60d 313d 6dd5 f0bb
00000050: 3776 c8bb cecd a23d 5cb7 093d 4ad9 7d3b
00000060: 935b d83c 7d7a 5dbd e67f 493d f12d 29bd
00000070: 80b7 0ebd b634 813d 78d8 32bd 2aa7 d33c
00000080: e973 503c ddc5 abbc 8e4e 7d3d 980a 41bd
00000090: 8159 c2bb 69c4 0a3c 7e52 7c3b 0eec 503c
000000a0: 1bcc b9ba b1fb 87bd 2824 f23c 7f59 9b3d
000000b0: 740e 7c3c 4555 383d 315d 403d 9b28 0a3d
000000c0: 905f 3fbb e9f3 53bd b633 03bd 0af1 4c3d
000000d0: 13ce 86bd 9f26 fd3c 3608 883d 83f2 dcba
000000e0: c467 82bd 165c 8d3d e072 953d 6d7c 933d
000000f0: ad71 773d 76a4 89bd 1a65 923d 4f71 2b3d

conv1d2.weight f4 [32, 64, 1]
-0.09831687 0.08375365 -0.026909955 0.096936405 0.13969438 0.099217 0.10544992 0.026246414
0.013296945 -0.110637285 -0.09635475 -0.03327251 -0.12153964 0.107567884 -0.062098064 -0.10365195
0.0039570592 0.08899011 0.033912107 -0.08572293 -0.06597776 -0.14608212 -0.05867747 -0.16323557
-0.026294012 -0.005496563 0.02365264 0.080196716 0.09088766 -0.06541246 0.0031635126 -0.059778515
-0.06610335 -0.103544526 0.14999032 0.07461113 0.07148261 0.02846293 -0.040674657 -0.056110222
-0.06739074 0.13889164 0.07763116 0.15397793 -0.066929944 0.051887088 0.061617557 0.04208401
-0.13248427 -0.06146556 0.032243755 -0.019834848 -0.053488154 0.030599797 0.09534478 0.033303227
0.056721643 -0.022338485 0.10108077 -0.08345507 0.05614207 -0.10231803 -0.07729207 0.056660313
-0.059820924 -0.025505709 -0.05489958 -0.0852322 0.0571243 -0.004811998 0.1072844 0.041251928
0.06037622 -0.12044644 -0.16527602 -0.014015288 0.096220516 0.11708946 -0.019256303 0.08317007
-0.02930237 -0.05392906 0.08318113 -0.035057325 -0.02291259 -0.09945504 0.08159887 -0.110849634
0.044720165 0.10927106 0.13074675 0.0010375037 -0.100757085 0.079262346 -0.10598574 -0.11220084
-0.07561185 0.040142182 0.04065878 -0.06394391 0.1776236 0.04614996 -0.10312175 0.05140634
-0.10379419 -0.08499022 -0.08063339 0.023252333 0.057163566 0.018464057 -0.13443816 -0.00387862
0.11791207 0.16759038 -0.05849226 0.09374461 -0.13599414 -0.08934744 0.10524247 -0.022492168
0.018827787 0.019048389 0.11409911 0.029525964 0.10144257 0.12749214 -0.09819013 -0.012835796
-0.12235372 -0.052499752 -0.035865057 0.070748046 -0.085682444 -0.022327749 0.10236134 -0.003936586
-0.063726805 -0.10344354 0.0871469 0.09516819 0.05038252 0.026310511 -0.08307073 -0.049682852
-0.0909808 -0.13381279 0.07652177 0.027118785 -0.118728735 0.0154782655 0.08871061 -0.057742927
0.0013042804 -0.0812479 0.056940977 -0.06191424 -0.11026157 -0.111303285 -0.13889198 -0.12954022
0.025053835 0.09396789 0.08034253 -0.054020625 -0.072910205 0.046055727 -0.14086416 -0.12578852
-0.08377209 -0.08227484 -0.13762388 -0.036480088 0.023215018 0.08984401 0.03196495 -0.0042119585
-0.053231508 -0.011660406 -0.07695111 0.052186605 -0.10486566 -0.07326507 0.0028302446 -0.1136195
-0.042802602 0.013088828 0.031470828 0.023478005 0.0180854 -0.051695768 -0.03734906 -0.10537381
-0.08695471 -0.11824817 -0.04331259 0.12187497 -0.042869683 -0.002068847 0.12926358 0.10264472
-0.015065209 0.100803114 -0.13863356 0.037635833 -0.11095428 0.002920504 -0.03285505 0.017964944
0.022207493 0.025386767 0.06141711 0.026222283 -0.00293008 -0.09115833 0.021464558 -0.13761851
0.036636844 0.17879559 0.079061694 -0.09129745 0.0932689 -0.034901716 0.14058082 0.07848354
-0.083761066 -0.1173876 -0.01562519 -0.04013985 -0.007990992 0.09291603 0.10056886 0.037042413
-0.052390818 0.010294992 0.03394012 0.10443932 -0.064274296 0.010680012 -0.06268506 0.09592815
0.05655478 -0.040498465 -0.06643638 0.0068567335 -0.1255975 0.015217171 0.11218357 0.12420953
0.06758846 -0.09703166 -0.019914474 -0.07457483 -0.011270101 0.14543764 -0.12841879 -0.07904789
00000000: 5b5a c9bd 0987 ab3d 4472 dcbc 9886 c63d
00000010: 0b0c 0f3e 4832 cb3d 21f6 d73d b802 d73c
00000020: 6edb 593c cd95 e2bd a455 c5bd c148 08bd
00000030: c6e9 f8bd 8d4c dc3d 8a5a 7ebd 7947 d4bd
00000040: 38aa 813b 7240 b63d 6ce7 0a3d 818f afbd
00000050: 591f 87bd 8d96 15be c957 70bd 3a27 27be
00000060: 8a66 d7bc 831c b4bb 2ec3 c13c 2d3e a43d
00000070: 4f23 ba3d f8f6 85bd ef52 4f3b 51da 74bd
00000080: 3161 87bd 270f d4bd 1097 193e b8cd 983d
00000090: 7a65 923d 172b e93c 789a 26bd d5d3 65bd
000000a0: 2804 8abd 9c39 0e3e 16fd 9e3d 64ac 1d3e
000000b0: 9112 89bd 8e87 543d b162 7c3d 4860 2c3d
000000c0: f5a9 07be 50c3 7bbd 0712 043d b17c a2bc
000000d0: 6516 5bbd 6dac fa3c 2044 c33d f768 083d
000000e0: f454 683d 33ff b6bc 6f03 cf3d 7eea aabd
000000f0: 3af5 653d 1e8c d1bd 4e4b 9ebd a514 683d
00000100: c906 75bd 59f1 d0bc 62de 60bd 388e aebd
00000110: 2cfb 693d f7ad 9dbb ecb7 db3d c8f7 283d
00000120: 0e4d 773d a0ac f6bd 1e3e 29be 61a0 65bc
00000130: 430f c53d 99cc ef3d 65bf 9dbc 1255 aa3d
00000140: 860b f0bc b8e4 5cbd de5a aa3d 4598 0fbd
00000150: 2fb3 bbbc 16af cbbd 4f1d a73d 2205 e3bd
00000160: 7e2c 373d 81c9 df3d 7ae2 053e d9fc 873a
00000170: bb59 cebd 4c54 a23d 0d0f d9bd 8ec9 e5bd
00000180: 63da 9abd 216c 243d d289 263d 06f5 82bd
00000190: f6e2 353e be07 3d3d 7f31 d3bd 748f 523d
000001a0: 0c92 d4bd 5a0f aebd 1e23 a5bd ad7b be3c
000001b0: 5824 6a3d ef41 973c 28aa 09be 7230 7ebb
000001c0: e27b f13d d09c 2b3e 9495 6fbd 2dfd bf3d
000001d0: 0c42 0bbe cafb b6bd 5d89 d73d 7f41 b8bc
000001e0: bb3c 9a3c 5e0b 9c3c cbac e93d 6fe0 f13c
000001f0: 1fc1 cf3d 4d8d 023e e817 c9bd 3b4d 52bc
00000200: 9694 fabd fb09 57bd 3de7 12bd 5ae4 903d
00000210: 477a afbd afe8 b6bc d2a2 d13d 7afe 80bb
00000220: 3383 82bd 35da d3bd 137a b23d 8ae7 c23d
00000230: e75d 4e3d 2489 d73c fd20 aabd 3f80 4bbd
00000240: 2454 babd 3806 09be 72b7 9c3d 3728 de3c
00000250: 0d28 f3bd 8d98 7d3c e9ad b53d d983 6cbd
00000260: 63f4 aa3a 4d65 a6bd f13a 693d c999 7dbd
00000270: d1d0 e1bd faf2 e3bd b339 0ebe 31a6 04be
00000280: b33d cd3c 3d72 c03d a08a a43d bb44 5dbd
00000290: f251 95bd eea4 3c3d b23e 10be b5ce 00be
000002a0: b490 abbd b67f a8bd 46ed 0cbe 256c 15bd
000002b0: 6c2d be3c 2300 b83d aeed 023d 7804 8abb
000002c0: 4809 5abd 4a0b 3fbc 8b98 9dbd 9fc1 553d
000002d0: cfc3 d6bd ff0b 96bd a07b 393b 57b1 e8bd
000002e0: c851 2fbd 8672 563c 8ee7 003d f254 c03c
000002f0: d527 943c f1be 53bd 54fb 18bd 39ce d7bd
00000300: 5015 b2bd 192c f2bd 8b68 31bd 9699 f93d
00000310: 1f98 2fbd 7e95 07bb ac5d 043e 6537 d23d
00000320: 11d4 76bc dd71 ce3d f5f5 0dbe 0828 1a3d
00000330: ff3b e3bd ed65 3f3b 0493 06bd 382b 933c
00000340: 7dec b53c e9f7 cf3c 8290 7b3d 1dd0 d63c
00000350: 9606 40bb 38b1 babd 71d6 af3c deeb 0cbe
00000360: 8410 163d 3116 373e 19eb a13d 28fa babd
00000370: c403 bf3d 1af5 0ebd 6bf4 0f3e fabb a03d
00000380: ec8a abbd e968 f0bd 6600 80bc af69 24bd
00000390: a6ec 02bc c24a be3d 0cf7 cd3d c9b9 173d
000003a0: c197 56bd 53ac 283c cc04 0b3d 48e4 d53d
000003b0: 3ea2 83bd 38fb 2e3c 0661 80bd fa75 c43d
000003c0: fca5 673d b8e1 25bd cc0f 88bd 73ae e03b
000003d0: a29c 00be 7151 793c 80c0 e53d 9161 fe3d
000003e0: d26b 8a3d 89b8 c6bd ae23 a3bc b0ba 98bd
000003f0: 3ba6 38bc 9bed 143e 3780 03be dce3 a1bd

conv1d2.bias f4 [32]
0.03451705 0.07003382 -0.059048325 0.043405067 -0.055882975 -0.00013511284 -0.038434774 -0.011922218
-0.026170699 0.09494557 -0.09763009 -0.02581122 0.11331082 0.10282771 0.0068476386 -0.05743393
0.06036402 -0.07467714 -0.16105808 -0.002033397 0.075371936 0.0051951213 0.06662416 -0.06958198
-0.053488415 0.072715566 0.08557186 -0.0791508 0.03319744 0.07661951 -0.1156774 -0.07929751
00000000: c061 0d3d e46d 8f3d a8dc 71bd 83c9 313d
00000010: 8ce5 64bd 14ad 0db9 c86d 1dbd 6855 43bc
00000020: ef63 d6bc d372 c23d 49f2 c7bd 0d72 d3bc
00000030: 810f e83d 5697 d23d 2862 e03b d73f 6bbd
00000040: 4340 773d 54f0 98bd 69ec 24be be42 05bb
00000050: 9a5c 9a3d d63b aa3b 3f72 883d ff80 8ebd
00000060: ab16 5bbd e6eb 943d 4d40 af3d d119 a2bd
00000070: 0afa 073d b1ea 9c3d 46e8 ecbd bc66 a2bd

fc1.weight f4 [32, 320]
-0.0034927358 -0.0030184595 -0.04198772 0.0021180902 -0.03152874 -0.014363527 0.02507347 -0.020170197
-0.014279658 -0.003818222 0.0067344564 0.03994662 -0.051784683 0.016512485 0.016836151 -0.04005651
-0.0016106169 0.024187874 -0.047633044 0.021488221 0.040220045 0.0021198425 -0.0052291304 0.033408266
-0.027548296 -0.009872721 -0.01851216 0.012895944 -0.0034577264 -0.005896548 -0.008944604 0.012991031
-0.006380588 -0.002666938 0.023114957 0.029566212 0.034321733 -0.029725822 0.008691027 0.022245018
0.04295089 -0.0107021965 0.012152418 0.051950864 0.022538094 0.019791929 -0.015884219 -0.030424345
0.017951917 -0.014436123 -0.0007281992 -0.013175584 0.080660105 -0.006298773 0.071870394 0.0027038248
0.03192147 -0.025107047 0.050661694 0.037696186 0.010719509 0.050918043 -0.04558921 0.036389835
-0.014652853 -0.03817992 0.05588684 0.04876445 -0.02299322 0.017308565 0.028422022 -0.014508517
0.020410806 0.06415493 0.014118229 0.01685381 0.043949906 -0.053868484 0.053248007 0.024708986
-0.023939962 -0.068135545 -0.040810484 0.014787863 0.017535033 -0.041894343 0.0266916 -0.050568324
-0.035066105 -0.0059696683 -0.019285737 0.008757263 0.0061727767 -0.0035020323 -0.0028732542 0.029393595
-0.005081153 0.043154296 0.05106411 -0.00876354 -0.028968165 -0.009810252 -0.027689178 0.03817328
-0.06859017 0.014148336 0.034074735 -0.016240945 0.025460137 -0.05276488 0.04928678 -0.013703777
0.018999327 -0.022814121 0.023858763 -0.009251905 -0.026803434 0.030725606 -0.00688371 -0.04528146
0.010022309 -0.01661275 -0.05735878 0.012536563 0.0053941784 -0.028106194 0.027397992 0.04158578
0.053048465 0.0295526 -0.027974578 -0.02109817 -0.019656554 0.033204217 0.031971045 -0.031340618
0.046056543 0.05967832 0.0046595833 0.06415626 0.011543593 0.015290277 0.010773275 -0.054824688
0.030358993 -0.025114072 0.025361946 -0.033189252 -0.044013944 -0.027571265 0.024634732 0.042184338
0.015622218 0.011224784 0.0016778626 0.04875647 -0.016629824 -0.009290674 -0.02698959 0.01938536
0.028899072 -0.017780773 -0.06343838 0.0005225985 0.010140871 -0.05343826 0.015776975 -0.008052355
-0.051331066 0.019808132 -0.0085155545 -0.006088901 0.0018013023 0.022993632 -0.035521485 0.005943222
0.0052103624 -0.0399633 -0.059982557 -0.03214539 -0.056195524 0.00876651 -0.013583704 0.031004902
-0.021690167 -0.018794905 0.03629754 -0.06774713 -0.03937699 0.009835207 -0.041752826 -0.03936271
-0.03914817 -0.05042573 -0.029324347 -0.03690251 -0.040910065 0.003752517 -0.05371241 -0.08149451
-0.040368583 0.011516607 -0.025001751 -0.03685485 -0.06635276 -0.017621584 -0.042433254 -0.024171723
-0.06664609 -0.01060233 -0.030411433 0.00075202144 -0.02253719 0.0142240245 0.0030063584 -0.015744247
0.03209683 0.012193592 0.04400746 -0.007686462 -0.025405059 0.038229376 -0.06466165 0.03715866
-0.019810326 0.025723975 -0.03866145 -0.034689065 0.0044596856 -0.001373566 -0.0126469135 -0.022377305
-0.03540551 -0.01905583 -0.017291747 0.010607251 -0.011288301 -0.011656377 -0.022248272 -0.03445636
0.025823511 -0.0362412 0.041659493 0.04083193 0.0013520444 0.037574273 -0.049208056 0.038365692
0.0448913 0.017613135 0.03987591 0.00071819633 0.0104856 0.070801064 0.0098111695 0.021708002
00000000: 62e6 64bb 59d1 45bb 51fb 2bbd a8cf 0a3b
00000010: 4824 01bd 0055 6bbc e166 cd3c f83b a5bc
00000020: 3af5 69bc 233b 7abb b7ac dc3b 119f 233d
00000030: 2d1c 54bd 3145 873c f8eb 893c 4c12 24bd
00000040: 561b d3ba a625 c63c de1a 43bd 1108 b03c
00000050: c6bd 243d 0eed 0a3b 2059 abbb 1bd7 083d
00000060: f7ac e1bc 31c1 21bc d0a6 97bc 8249 533c
00000070: 069b 62bb d437 c1bb 638c 12bc 55d8 543c
00000080: 4014 d1bb cbc7 2ebb 945b bd3c d734 f23c
00000090: f294 0c3d 9183 f3bc cf64 0e3c 2f3b b63c
000000a0: 46ed 2f3d 4458 2fbc ef1a 473c 6eca 543d
000000b0: cfa1 b83c af22 a23c 9f1f 82bc 7a3c f9bc
000000c0: e60f 933c 7d85 6cbc 9fe4 3eba 68de 57bc
000000d0: 2031 a53d f065 cebb c930 933d a732 313b
000000e0: 16c0 023d 4bad cdbc a382 4f3d 5167 1a3d
000000f0: e1a0 2f3c 708f 503d c0bb 3abd 820d 153d
00000100: 8512 70bc 8c62 1cbd 99e9 643d 3bbd 473d
00000110: 475c bcbc b1ca 8d3c 4dd5 e83c 22b5 6dbc
00000120: 9034 a73c a963 833d 2550 673c 0011 8a3c
00000130: d104 343d 33a5 5cbd 951a 5a3d 806a ca3c
00000140: bd1d c4bc a68a 8bbd e528 27bd cb48 723c
00000150: a1a5 8f3c 6799 2bbd 58a8 da3c bb20 4fbd
00000160: 7aa1 0fbd 359d c3bb 1ffd 9dbc a07a 0f3c
00000170: 0145 ca3b 5a82 65bb 354d 3cbb d6ca f03c
00000180: cd7f a6bb 8fc2 303d 9a28 513d f394 0fbc
00000190: a54e edbc 2ebb 20bc 6ad4 e2bc 965b 1c3d
000001a0: 0179 8cbd 6cce 673c f391 0b3d bb0b 85bc
000001b0: c791 d03c fd1f 58bd efe0 493d cf85 60bc
000001c0: 7aa4 9b3c aee4 babc 7473 c33c 4d95 17bc
000001d0: e092 dbbc 44b4 fb3c bf90 e1bb 0d79 39bd
000001e0: 9c34 243c 7617 88bc 0af1 6abd 2866 4d3c
000001f0: a6c1 b03b f63e e6bc c171 e03c da55 2a3d
00000200: 5949 593d 4b18 f23c f12a e5bc 12d6 acbc
00000210: c806 a1bc 2501 083d 12f4 023d 055f 00bd
00000220: c9a5 3c3d 4171 743d 6baf 983b 5b64 833d
00000230: 5721 3d3c 1284 7a3c 6482 303c da8f 60bd
00000240: 6cb3 f83c 07bc cdbc dbc3 cf3c 74f1 07bd
00000250: f747 34bd 22dd e1bc c7ce c93c 7cc9 2c3d
00000260: 55f4 7f3c 28e8 373c baeb db3a ddb4 473d
00000270: 453b 88bc e937 18bc 4619 ddbc 0cce 9e3c
00000280: bfbd ec3c fca8 91bc fbeb 81bd fefe 083a
00000290: e525 263c 14e2 5abd b73e 813c 06ee 03bc
000002a0: 8640 52bd aa44 a23c d384 0bbc 6785 c7bb
000002b0: ad19 ec3a 245d bc3c fa7e 11bd 5cbf c23b
000002c0: b0bb aa3b 8fb0 23bd 45b0 75bd e2aa 03bd
000002d0: 472d 66bd 68a1 0f3c 2f8e 5ebc fefd fd3c
000002e0: 94af b1bc c6f7 99bc bbac 143d 02bf 8abd
000002f0: c449 21bd d923 213c 0305 2bbd cb3a 21bd
00000300: d559 20bd 368b 4ebd 9d39 f0bc 1627 17bd
00000310: 5091 27bd caec 753b 8b01 5cbd 98e6 a6bd
00000320: 8759 25bd 27b0 3c3c 79d0 ccbc 1cf5 16bd
00000330: f5e3 87bd 245b 90bc 7ece 2dbd c703 c6bc
00000340: bf7d 88bd 65b5 2dbc 6621 f9bc 4e23 453a
00000350: ea9f b8bc e20b 693c 5306 453b 14fa 80bc
00000360: f777 033d a2c7 473c 2b41 343d b7de fbbb
00000370: 451e d0bc 6896 1c3d 546d 84bd ae33 183d
00000380: 4449 a2bc 16bb d23c 785b 1ebd 1f16 0ebd
00000390: 8e22 923b 3a09 b4ba 0035 4fbc 9c50 b7bc
000003a0: 5e05 11bd f91a 9cbc 6ca7 8dbc 09ca 2d3c
000003b0: 91f2 38bc 64fa 3ebc 0242 b6bc 1d22 0dbd
000003c0: d48b d33c a771 14bd 25a3 2a3d 623f 273d
000003d0: 1537 b13a 7be7 193d 638e 49bd 5825 1d3d
000003e0: f1df 373d 6c49 903c ec54 233d 5745 3c3a
000003f0: cbcb 2b3c 2600 913d 07bf 203c fbd4 b13c

fc1.bias f4 [32]
0.076497324 -0.048419546 -0.06290614 0.07945029 -0.034869075 0.14918359 0.03375886 -0.018747648
0.105317 -0.042945992 -0.032203417 -0.051975008 -0.06877479 -0.042772688 -0.029601416 0.089680694
0.03619256 0.04083866 0.12374758 0.0556049 0.01645377 0.08435362 0.045542307 -0.06276111
0.11386265 0.021020245 -0.05172302 -0.025706321 0.08236869 0.07011006 0.12401055 0.036003508
00000000: a1aa 9c3d 9353 46bd efd4 80bd d5b6 a23d
00000010: e0d2 0ebd 95c3 183e bb46 0a3d ab94 99bc
00000020: 70b0 d73d 23e8 2fbd bbe7 03bd bfe3 54bd
00000030: ccd9 8cbd 6a32 2fbd ab7e f2bc 83aa b73d
00000040: a63e 143d 7046 273d 5f6f fd3d f7c1 633d
00000050: 0fca 863c 97c1 ac3d 928a 3a3d e688 80bd
00000060: d230 e93d a632 ac3c 84db 53bd 1096 d2bc
00000070: eab0 a83d dd95 8f3d 3ef9 fd3d 6a78 133d

fc2.weight f4 [1, 32]
0.037686806 -0.11583755 -0.094518274 0.12003114 -0.08359059 0.02883798 -0.1007679 0.12892954
0.05208101 -0.11084798 -0.110722065 -0.084939554 -0.091672346 -0.05963288 -0.048936486 0.058903374
-0.061643794 0.036129568 0.059266474 0.046575423 -0.091252565 0.062588744 -0.06313349 -0.07245552
0.037768386 -0.098939605 -0.07245328 0.14387225 0.061842844 0.12008313 0.06366707 0.14334491
00000000: 7b5d 1a3d 3d3c edbd cc92 c1bd e3d2 f53d
00000010: 8b31 abbd a13d ec3c 675f cebd 1b06 043e
00000020: e652 553d 4404 e3bd 40c2 e2bd caf4 adbd
00000030: b6be bbbd 9b41 74bd a071 48bd aa44 713d
00000040: 347e 7cbd 99fc 133d 67c1 723d dfc5 3e3d
00000050: a0e2 babd 872e 803d 224c 81bd 8f63 94bd
00000060: 06b3 1a3d d9a0 cabd 6362 94bd 3f53 133e
00000070: ec4e 7d3d 25ee f53d e163 823d 02c9 123e
